data.pth (torch, 5015 bytes, 6 tensors)

l1.weight f4 [8, 54]
-0.15734725 -0.362209 0.2984468 -0.06149466 0.5101613 -0.2171502 0.37228006 0.37307653
0.34093222 0.38188994 0.0074962266 -0.3267907 0.7075363 -0.14002149 0.030714318 -0.44446465
0.21104681 -0.25799423 0.49336222 0.19126865 -0.2589258 0.13963836 0.13716327 -0.22762136
0.24848485 0.08960177 0.56030047 -0.33263236 0.37513155 -0.18499155 -0.20938922 -0.093731396
0.050306138 0.33390462 -0.14812648 -0.3568125 0.3832027 0.42044428 0.39234686 0.33729124
-0.17240743 0.54908764 -0.27270925 0.06443341 0.195263 -0.13652146 -0.5495618 -0.12262522
0.38755077 0.6724058 -0.3666602 0.34256524 0.5320261 0.45268184 0.16118614 0.5829052
-0.3746768 0.12807865 -0.01852389 -0.21419334 -0.24883777 -0.18893172 -0.39372382 -0.14126822
-0.06299118 -0.13816327 0.082338884 -0.030259786 0.3614616 -0.11677217 -0.054619875 -0.343705
0.005509703 0.040457066 0.17393881 -0.027986875 -0.08564991 0.250468 -0.0895021 -0.11616437
0.1698222 0.5425269 0.19492835 0.67326665 -0.04244213 0.029619332 0.051407218 -0.39964968
0.58084 -0.22035211 0.2689662 -0.308736 -0.13615869 -0.11503912 -0.09811004 0.15141864
0.12724438 0.31491607 -0.41207385 0.49929416 0.6686727 0.29559663 0.061842293 0.19394761
-0.14881581 0.15555534 -0.043761626 0.09051404 0.28784627 0.77081686 -0.19506125 0.51628983
0.34464934 -0.65762746 0.018798746 -0.23381887 -0.38578147 -0.053180628 0.6349883 -0.13031027
0.24050525 -0.3631353 0.45669317 -0.21033391 0.669626 -0.6396884 0.31580245 0.7908207
0.44556338 0.8029645 0.89384276 0.47163823 -0.19432515 0.44186145 0.31326616 0.5755622
0.14171022 0.55391467 -0.35856026 -0.3914435 0.088982426 -0.20585893 0.740391 -0.17987728
0.11601469 -0.24415255 -0.14725041 0.042234175 -0.36017162 0.4507193 -0.13043678 0.5274746
-0.30984467 0.7104492 0.39364925 0.28858364 0.32694983 0.41488034 -0.24964324 0.37942266
-0.057522535 0.1674996 0.68580747 0.1792136 0.30433068 0.3789536 0.15535185 -0.21595684
0.0015359543 0.026326815 0.20566265 0.21762182 0.38909316 0.94338876 0.06940813 0.8442752
0.094678506 0.7633305 0.36458793 -0.2126818 -0.3234714 0.33171967 0.57508105 0.32794315
0.4220763 0.86793345 0.5425773 0.269943 -0.3422452 0.093519114 -0.15702824 -0.14673375
0.01695806 0.8175776 0.38274664 0.25329128 0.09892228 0.5511219 -0.17905374 0.22405092
0.14643498 0.13895497 -0.06853661 -0.5532808 0.67091113 0.09394561 0.6544109 0.20968813
0.85870224 0.39177963 0.07320434 -0.34369943 0.5690976 -0.41338012 0.03657296 0.25332034
-0.2628843 0.4760104 -0.3977886 -0.23928422 -0.0984284 0.74815243 -0.010408657 -0.14303176
-0.17736709 -0.22093432 -0.26427817 -0.14869626 0.12749068 0.087014645 0.4710939 -0.088981524
-0.11191611 0.83312255 0.26920137 -0.3762777 -0.10524241 -0.37625638 -0.37614733 -0.3315529
-0.0903522 -0.18429099 0.352831 0.41335955 0.25840974 0.2558743 0.57569057 -0.1400838
-0.25112683 -0.15977311 0.4566271 -0.15506802 0.16076496 -0.15442443 -0.12744248 -0.0068995296
00000000: a31f 21be 7573 b9be 05ce 983e d3e1 7bbd
00000010: ee99 023f 9f5c 5ebe 7e9b be3e e303 bf3e
00000020: ab8e ae3e 1487 c33e e8a2 f53b 1c51 a7be
00000030: 1921 353f cb61 0fbe 989c fb3c df90 e3be
00000040: a81c 583e d217 84be f999 fc3e eedb 433e
00000050: ec91 84be 5cfd 0e3e 8774 0c3e 9315 69be
00000060: d072 7e3e 2281 b73d da6f 0f3f ca4e aabe
00000070: 3e11 c03e 6d6e 3dbe 216a 56be 3ff6 bfbd
00000080: cf0d 4e3d 8cf5 aa3e 78ae 17be 21b0 b6be
00000090: 2533 c43e 7944 d73e b0e1 c83e 70b1 ac3e
000000a0: 938b 30be 0291 0c3f 8ca0 8bbe aaf5 833d
000000b0: 06f3 473e 48cc 0bbe 15b0 0cbf ee22 fbbd
000000c0: 0e6d c63e c922 2c3f e3ba bbbe b664 af3e
000000d0: dd32 083f eac5 e73e fb0d 253e 4639 153f
000000e0: a3d5 bfbe 0d27 033e 6abf 97bc 8055 5bbe
000000f0: 54cf 7ebe 5177 41be 2b96 c9be 9ea8 10be
00000100: 8501 81bd ac7a 0dbe 4aa1 a83d 5fe3 f7bc
00000110: 7f11 b93e 3f26 efbd 17b9 5fbd 1afa afbe
00000120: bd8a b43b 4fb6 253d 041d 323e bb44 e5bc
00000130: 3869 afbd 573d 803e e14c b7bd 96e7 edbd
00000140: dfe5 2d3e 0be3 0a3f 4c9b 473e 345b 2c3f
00000150: cdd7 2dbd 3ea4 f23c 6090 523d e29e ccbe
00000160: eeb1 143f fca3 61be f0b5 893e a512 9ebe
00000170: 2f6d 0bbe a199 ebbd ebed c8bd 7d0d 1b3e
00000180: 5a4c 023e ae3c a13e 58fb d2be 7ca3 ff3e
00000190: 222e 2b3f 7158 973e 584e 7d3d 349a 463e
000001a0: 2c63 18be e649 1f3e 643f 33bd 6d5f b93d
000001b0: 9660 933e 4154 453f 23be 47be 922b 043f
000001c0: e175 b03e 465a 28bf d4ff 993c 376e 6fbe
000001d0: 2685 c5be eed3 59bd 988e 223f 0e70 05be
000001e0: 0247 763e dfec b9be b0d3 e93e c661 57be
000001f0: 9c6c 2b3f 9ec2 23bf dcb0 a13e 3a73 4a3f
00000200: e220 e43e 158f 4d3f e1d2 643f 917a f13e
00000210: 2cfd 46be aa3b e23e 6c64 a03e 0b58 133f
00000220: 7c1c 113e 5acd 0d3f 3695 b7be 486b c8be
00000230: 6b3c b63d afcc 52be 448a 3d3f c031 38be
00000240: 1c99 ed3d 2003 7abe d0c8 16be befd 2c3d
00000250: 6a68 b8be aec4 e63e 3891 05be 9308 073f
00000260: f6a3 9ebe 00e0 353f 658c c93e 3cc1 933e
00000270: f865 a73e 326b d43e 7aa2 7fbe b043 c23e
00000280: c09c 6bbd 0485 2b3e 1491 2f3f c583 373e
00000290: 3bd1 9b3e 3506 c23e 8e14 1f3e ca23 5dbe
000002a0: 1352 c93a 55ab d73c 3b99 523e 41d8 5e3e
000002b0: 3837 c73e ed81 713f da25 8e3d 6b22 583f
000002c0: cee6 c13d a169 433f 45ab ba3e 42c9 59be
000002d0: 0b9e a5be 29d7 a93e 8338 133f 2ae8 a73e
000002e0: 631a d83e e330 5e3f 59e6 0a3f f835 8a3e
000002f0: c33a afbe f386 bf3d 03cc 20be 5f41 16be
00000300: a1eb 8a3c c44c 513f 5ef7 c33e 65af 813e
00000310: c497 ca3d 5316 0d3f dd59 37be 9b6d 653e
00000320: 0df3 153e 364a 0e3e ec5c 8cbd cfa3 0dbf
00000330: d5c0 2b3f 8e66 c03d 7987 273f 7cb8 563e
00000340: e9d3 5b3f 5797 c83e 28ec 953d 5ff9 afbe
00000350: 61b0 113f 8fa6 d3be 87cd 153d 34b3 813e
00000360: c598 86be a3b7 f33e f3aa cbbe ec06 75be
00000370: d494 c9bd eb86 3f3f 1289 2abc eb76 12be
00000380: b89f 35be 9b3c 62be 784f 87be d543 18be
00000390: eb8c 023e bc34 b23d 3833 f13e f23b b6bd
000003a0: 4634 e5bd 8547 553f c3d4 893e 78a7 c0be
000003b0: 5589 d7bd ada4 c0be 6296 c0be 4dc1 a9be
000003c0: 930a b9bd c7b6 3cbe 44a6 b43e dda3 d33e
000003d0: 484e 843e f501 833e 7560 133f 2172 0fbe
000003e0: b293 80be 909b 23be 07cb e93e 27ca 1ebe
000003f0: 929f 243e 7021 1ebe 4880 02be 7315 e2bb

l1.bias f4 [8]
0.538877 0.6308522 0.722822 1.0725868 0.37629575 0.18382363 0.59035796 0.50657564
00000000: d8f3 093f 887f 213f dd0a 393f 864a 893f
00000010: d6a9 c03e 433c 3c3e b321 173f f1ae 013f

l2.weight f4 [8, 8]
-0.5695607 0.87724143 1.5368638 0.37802213 -0.16636261 -1.5797331 -0.13053478 0.03909093
-1.0115626 0.8149683 -0.70095974 0.96115345 1.4081434 1.1496409 1.5617229 0.6481228
-0.28734067 0.08850337 0.26008543 -0.21438129 -0.11647198 0.18850449 -0.17545207 0.055714086
-0.33841875 -0.27251536 -0.24771532 -0.18790485 0.13210934 -0.13877271 0.24593666 0.039203346
1.0978732 0.4283681 0.7584769 -0.12033931 0.827154 -0.097186625 -0.049739357 1.015296
0.36411694 -0.54451954 0.029866302 1.0893033 -0.98151714 -0.6031208 -0.9496501 0.16432634
-0.39207777 1.2033302 1.5349993 0.56100845 -0.8250545 0.8524212 0.6819661 -1.1187812
0.18081774 -0.15468924 0.48633778 1.0641211 -0.8347713 0.43543503 -0.12586948 -0.71727896
00000000: bbce 11bf e592 603f f4b7 c43f 1e8c c13e
00000010: f65a 2abe b234 cabf e9aa 05be d01d 203d
00000020: e27a 81bf c3a1 503f 1972 33bf 270e 763f
00000030: 0b3e b43f 6f27 933f 89e6 c73f 60eb 253f
00000040: 511e 93be 4141 b53d eb29 853e c586 5bbe
00000050: dd88 eebd 5207 413e b5a9 33be 7434 643d
00000060: 3945 adbe 2287 8bbe 16a9 7dbe 216a 40be
00000070: ac47 073e 6f1a 0ebe d2d6 7b3e b093 203d
00000080: 1c87 8c3f 1053 db3e 8b2b 423f 7574 f6bd
00000090: 5dc0 533f c809 c7bd 7fbb 4bbd 38f5 813f
000000a0: 896d ba3e a265 0bbf 2daa f43c 4a6e 8b3f
000000b0: b544 7bbf 2066 1abf 451c 73bf 2a45 283e
000000c0: 6bbe c8be b906 9a3f db7a c43f 409e 0f3f
000000d0: c636 53bf 4738 5a3f 5595 2e3f 3934 8fbf
000000e0: 4928 393e db66 1ebe 4401 f93e 1f35 883f
000000f0: 92b3 55bf 57f1 de3e eee3 00be 989f 37bf

l2.bias f4 [8]
-0.003440129 -0.10169975 -0.2835718 -0.30956644 0.40549982 0.5925779 -0.083574966 0.6636569
00000000: ca73 61bb f547 d0bd 5330 91be 7e7f 9ebe
00000010: ac9d cf3e 2fb3 173f 5a29 abbd 6be5 293f

l3.weight f4 [7, 8]
-0.5615024 0.18214183 0.018310767 -0.03735605 -1.444236 0.45398992 -0.51065916 0.5098139
0.15647824 0.06454687 -0.32020107 0.092227876 -0.30266118 -0.7614735 0.389644 -1.6263041
-1.5478361 0.9218434 -0.20547226 -0.26974455 0.015629726 -1.1106656 -0.9771535 -0.9515248
0.6393275 -1.5005186 0.036574267 -0.06128493 -0.45512813 -0.20325363 0.32970554 0.5284574
-0.5818312 -1.190311 0.11570755 -0.02463916 0.970991 -1.4898858 -0.6892029 -1.20934
-1.8268778 -1.5818108 0.20501597 -0.17944163 0.2985114 0.60170263 -1.1927688 0.8602637
-0.24710813 0.09627177 0.042520173 -0.13437276 -1.2476282 -1.642755 0.70380163 0.3137801
00000000: 9fbe 0fbf 6383 3a3e 7600 963c a802 19bd
00000010: badc b8bf 5e71 e83e 8fba 02bf 2a83 023f
00000020: d53b 203e 2631 843d 65f1 a3be f8e1 bc3d
00000030: 68f6 9abe edef 42bf 6b7f c73e bc2a d0bf
00000040: 7e1f c6bf eefd 6b3f 5267 52be f51b 8abe
00000050: e909 803c 4a2a 8ebf bb26 7abf 2197 73bf
00000060: f8aa 233f fe10 c0bf e6ce 153d e805 7bbd
00000070: 8e06 e9be b821 50be 2acf a83e fc48 073f
00000080: e4f2 14bf 1c5c 98bf 14f8 ec3d 10d8 c9bc
00000090: de92 783f 94b4 bebf 9a6f 30bf a7cb 9abf
000000a0: 22d7 e9bf c778 cabf b5ef 513e 8cbf 37be
000000b0: 7cd6 983e 2f09 1a3f a6ac 98bf 3e3a 5c3f
000000c0: ea09 7dbe 222a c53d a229 2e3d 0399 09be
000000d0: 48b2 9fbf cc45 d2bf 582c 343f c9a7 a03e

l3.bias f4 [7]
-0.57262254 -0.5798742 0.3921 0.032657105 0.2769013 0.09846186 -0.36384842
00000000: 6497 12bf a372 14bf 55c1 c83e 75c3 053d
00000010: 02c6 8d3e 5fa6 c93d 574a babe
